TTT_project/b1File.npy (npy, 728 bytes, 1 tensors)

array f8 [81]
0.631923704694134 0.27039107817383856 -0.9723647483653464 0.6262967538672306 -0.6240494798311187 0.20197365673004297 0.1430057148811965 -0.5058799619069112
-0.6707352911866256 0.7924471502716854 0.3937158422127025 -0.44407358978058853 0.5115920153292219 -0.048660266988024725 0.04670033391374395 -0.3305429537646303
0.45996430061767035 0.20258428765578418 -0.09181346230158272 0.07750181299962566 0.5649580089400092 0.519584606229994 -0.4621708359698675 -0.2421321072825502
-0.3427346245779628 0.5794220614677135 0.10931259923347669 -0.7219692574275174 -0.7498221328436394 -0.8900633119765784 -0.06917456842304426 0.2390116458147309
0.7831515287065924 -0.6469601550646902 -0.9900486513011548 0.6356964561065883 -0.2365693011398189 -0.7032972575991099 0.00026729234602229646 -0.7030182034637817
-0.5761823008362523 -0.41370912918273794 0.6210063394936041 0.8675512353618198 0.33787908999039606 0.4311119770666001 0.5103176382394135 -0.17361135110140968
0.040439172575141624 0.5538786400183804 -0.010817252274717193 -0.6926001601273197 0.5850705971488619 -0.43739715689370917 -0.08153423126413806 -0.568812888734936
-0.16572671420855545 0.04480652065904067 -0.5248798630109903 0.7525819154360707 -0.8135590177325516 0.2835864230312617 -0.2285285710006646 -0.02347434192819775
0.44436183855663436 -0.6352722133975854 0.48174996371434164 -0.45656631820866767 0.9533508431795576 0.7578509476641742 0.7927848281289671 0.7063217944248512
-0.543900994247368 -0.8944163130577014 0.7108254820903415 0.33743104926656153 -0.33870699113685077 0.8869597000809697 0.058909187648730876 0.15879306713793606
-0.5013406320715861
00000000: 9a4f a70f b838 e43f 98c1 7861 164e d13f
00000010: d865 40ad 9c1d efbf 466c 6e7d 9f0a e43f
00000020: 24bc 5e9d 36f8 e3bf 708f 27d5 45da c93f
00000030: c025 47e2 024e c23f ecf0 822c 2b30 e0bf
00000040: 506d 7ddb a976 e5bf 8c35 4720 ba5b e93f
00000050: 301f 8eee a332 d93f 24ff 47a2 b36b dcbf
00000060: ca7a d737 f65e e03f 2009 a89e ffe9 a8bf
00000070: e05d be2d 1be9 a73f b0e8 15a2 9d27 d5bf
00000080: fcbe 1e1b 0e70 dd3f 5820 152d 48ee c93f
00000090: b0f6 ea49 1681 b7bf 40cf 36a8 28d7 b33f
000000a0: f656 80d1 2214 e23f 5e69 68e5 6fa0 e03f
000000b0: b8f4 69fc 3494 ddbf f088 0b55 2ffe cebf
000000c0: 603a f134 5def d5bf 1eb6 9222 a08a e23f
000000d0: 20a0 bf16 e9fb bb3f 82cb ab45 5f1a e7bf
000000e0: 3a2c 4cfc 8afe e7bf 18e2 090e 667b ecbf
000000f0: 1086 17ad 6cb5 b1bf 7896 1101 ef97 ce3f
00000100: 586e 73cb 930f e93f 822c 7ac8 e5b3 e4bf
00000110: 1e32 5982 7aae efbf 1026 2518 a057 e43f
00000120: 5809 d121 e747 cebf 3626 1840 6981 e6bf
00000130: 0090 77e2 6b84 313f e6d3 0b08 207f e6bf
00000140: 0a06 54dd 1570 e2bf 3c60 f9da 357a dabf
00000150: 7e7a d7af 48df e33f 2278 efce fac2 eb3f
00000160: 18b4 609e cf9f d53f 888e 9ab0 5697 db3f
00000170: 7ced d9a7 8554 e03f 68f3 9891 e538 c6bf
00000180: 6004 6077 71b4 a43f ee9e 9ab2 5fb9 e13f
00000190: 801a 0506 5b27 86bf 3e70 9ecf c729 e6bf
000001a0: b060 13f9 e5b8 e23f fc32 0ea5 50fe dbbf
000001b0: 80b2 c868 6ddf b4bf 621d 5516 b733 e2bf
000001c0: 58b5 cc70 8836 c5bf 009a c159 e1f0 a63f
000001d0: dac1 beda d0cb e0bf 9c7c 4bab 2615 e83f
000001e0: c4de d0eb ac08 eabf a891 20ab 4726 d23f
000001f0: c821 5399 6c40 cdbf c0c5 816b a809 98bf
00000200: 3c3c 0ca3 6c70 dc3f 8834 9364 2654 e4bf
00000210: 6c25 c0cc fdd4 de3f ac53 4aef 6138 ddbf
00000220: 483f a2a0 d981 ee3f 40ba 6ea1 5040 e83f
00000230: 4e86 b249 7e5e e93f 7837 f029 309a e63f
00000240: 12bd d10e a367 e1bf 6aef b2f5 0e9f ecbf
00000250: f6b9 d714 15bf e63f 684f 5066 7898 d53f
00000260: 5cff 7616 60ad d5bf acf7 164f f961 ec3f
00000270: 603c c554 5829 ae3f 1830 18cb 5453 c43f
00000280: e8e8 5c82 fb0a e0bf
