TTT_project/w1File.npy (npy, 5912 bytes, 1 tensors)

array f8 [9, 81]
0	0x400e24c63bd25a31	3.76795622573561
1	0xc0265ce6b81b077c	-11.181447747516124
2	0xc0104a24a65f09ec	-4.072405433226304
3	0xbffbd51da9100caf	-1.7395302394877878
4	0xc00a26e1c6cc09a3	-3.268985322095618
5	0xc0144eafd94766e1	-5.076842684729599
6	0xc02309ac09f67c68	-9.518890677775019
7	0x3ffe51d570caea74	1.894978943439722
8	0x4012230e5c687be8	4.534234470250318
9	0x4020b6140066c5be	8.35562134985491
10	0x40277234797dd417	11.723056599244996
11	0xc020deabca27af0d	-8.434904401153767
12	0x3ff59cb9cff17eb9	1.3507631418978419
13	0xc02aaf246c8a4f89	-13.342074767955426
14	0xc01108bd04df5588	-4.258533550387604
15	0x40101d52a61a1d90	4.02863559278866
16	0x402cb2e85ff5cf76	14.349429129367973
17	0xc03b5d4447668172	-27.364323103452485
18	0xbfc8025af62a25e4	-0.18757187862165303
19	0xc026980acbffc67d	-11.296957373592926
20	0xc01170cab3bd6456	-4.360148247179572
21	0xc011f69653d3fa77	-4.490807828724988
22	0x3f95585616037206	0.020844788640589605
23	0x402cca5a14715aec	14.395218504750538
24	0xc025123d947147b0	-10.53562606699765
25	0xc016a5506e1809ef	-5.661439628808224
26	0xc0358360a5cfb306	-21.513193476875152
27	0x4023be2d0e7e572e	9.871437504694395
28	0x402ab6123cf80a8b	13.3556078961167
29	0xc02608237058d261	-11.015895377008919
30	0x401088c712d642c1	4.133571905448378
31	0xc0185204ed9ba65a	-6.080096924424277
32	0x4025f8fa116961b6	10.986282867540336
33	0xc0306d0bb9c2c967	-16.42596016889129
34	0xc0367f3a730aefb6	-22.496985616846096
35	0xc010ab7c139e37e2	-4.167465502292517
36	0xc03b6dd709114ee9	-27.42906243012013
37	0x40010c4c1acb98d7	2.1310045331366427
38	0xc02597e3f9d4643b	-10.796661193062496
39	0xbfe61fa6cf99e86a	-0.6913637213431347
40	0xc005555cd5fdb813	-2.666680976682082
41	0xc02c607d23d1c528	-14.188454741818148
42	0xc02823927fa328ea	-12.069477070490809
43	0xc02f8f2a8d6682e8	-15.779621523631661
44	0x4032223f94a247f4	18.13378266298237
45	0x401fabc36eb37f46	7.917737703042638
46	0xc001014ed2f29d8b	-2.1256386261263223
47	0xc003ffdd244ebcd6	-2.49993351331032
48	0xc019d5e2b969b06d	-6.458872696948771
49	0x4010d1d33c48a547	4.20490736192125
50	0x401560d15843316b	5.34454858694185
51	0x3fe50d3622ea3c85	0.6578627283032722
52	0x40224d056c05bda7	9.150431991291795
53	0xc00acd0f58199078	-3.3501269228746047
54	0x3ffba754bb2e802b	1.7283522903235375
55	0xc034afd3f8e0b77f	-20.686828188765045
56	0xc02aa6510007243c	-13.324836731788416
57	0xc02883a96b18bbf2	-12.257151934403712
58	0xc021cf5b18e5f6e5	-8.904991891929464
59	0xc00515d04bd19721	-2.6356511996590517
60	0x400430023c97e2df	2.523441766152572
61	0xbffd36ad723af6de	-1.8258490049478762
62	0xc03c28dea957dd70	-28.159647544814504
63	0xc02d521d28d87b95	-14.66037871973621
64	0xc013f02316a7e04f	-4.984508852001524
65	0x4029e6a80474fd5a	12.950500621109928
66	0xbff7b9f45e4cab58	-1.4828990634511765
67	0x40114d5007a6898e	4.325500602283126
68	0xc01d9f7d8600e709	-7.405752271466334
69	0x4015321646aad2d9	5.298913101364371
70	0x3fe45b1d2b9e527f	0.6361223079607753
71	0x40125238131ece49	4.580292032962071
72	0x3fe2d083f5748738	0.5879535478636404
73	0xc0201521e352d67b	-8.041274169790304
74	0x3fe5788e7dd1ffc8	0.6709663827350534
75	0xc03a64b866873250	-26.393438728339163
76	0x4000148ba3db11c9	2.010031967280359
77	0xc01cc06840b464d9	-7.1878976926902505
78	0xc02add64c0c6b12d	-13.432409309629827
79	0xc002d803eea3b9a5	-2.35547625004911
80	0xc033958e4574c4e7	-19.5842021379548
81	0x402694c9087ea074	11.290596261460657
82	0xc0303097f581f23d	-16.189818710541875
83	0xc00bc23b46621815	-3.469839620464891
84	0x3ff598713a08b668	1.3497173563913751
85	0x3ff34b7e5c481ea8	1.2059310536150551
86	0xc00fca52ee6ff313	-3.973790991584232
87	0x402dc61bb52acf4c	14.886930142856407
88	0x3fe15e1c3ca39752	0.5427380737644205
89	0x40041bd5b33a149c	2.513591194353081
90	0xc029d27f20af4aeb	-12.911126157186535
91	0x3ffc47180adea1eb	1.7673569130512259
92	0xc0201a6373291f7c	-8.051539992113014
93	0xc0334b3c0ffd4fae	-19.293885230392043
94	0xbff5ada91717bbe4	-1.354897585111524
95	0x401b6c5862efcdb9	6.855805917631579
96	0x4010b9c470d66e94	4.181413424575698
97	0x40281ca0ae34444d	12.055913394813752
98	0x4029212c89c9fe92	12.564792924792787
99	0xc016381cb27a1f3c	-5.5547969710385665
100	0xc0292bfc55db5501	-12.585909541152889
101	0xc0309440600b40e4	-16.579107287166053
102	0xc023b8aa0ab1726d	-9.860672315751083
103	0x4024d727e858b78b	10.420226345853527
104	0xc034c40e153089c8	-20.765839886045597
105	0xc01bf46bd0512549	-6.988692526772248
106	0xc0179023f80dfa79	-5.890762210705923
107	0xc034ef04a993e108	-20.933664892771986
108	0xc0284856ffc1d0c3	-12.141288750084987
109	0x40280a6b41001a85	12.020349532377859
110	0xc02c783b0e563006	-14.234825561543413
111	0x400a14174d29a8be	3.2598100689257015
112	0xbffa02e5c399a81c	-1.6257074013360642
113	0xc01d8a443b5c956b	-7.3850259089716515
114	0x401ada423f9cb648	6.7131433429145275
115	0x3ff90a05a52f56cb	1.564946789983355
116	0xbfe6ed455f8ab03e	-0.7164637437867964
117	0x3ff1c3d2bc070921	1.1103083939384037
118	0xc00daecda04ec32f	-3.7103531383549107
119	0xc0234f484fc6a36f	-9.654848568914273
120	0x4038efd3de42f3d3	24.936826602311907
121	0xc0252c963d7101d6	-10.58708374027712
122	0xc030beeea4251ba3	-16.745828875598487
123	0xc02e044c007b8187	-15.008392348362362
124	0x3ffc78dfc3772299	1.7795102725378114
125	0xc008c7532be507a1	-3.0973266057271336
126	0x4002f564bdc0010e	2.3698210548610694
127	0x4011bdaae74e63fc	4.435222257766323
128	0xc03bdc664ebcf208	-27.860936089638955
129	0xc01821b8bd014544	-6.0329312831902975
130	0xbffdae66cb7d9c43	-1.8550785015920759
131	0xc023cbc575069c4e	-9.897990853363947
132	0xc02380e7f7c388e0	-9.75176977407358
133	0xc0087eaf391a0015	-3.061857648950545
134	0xbfdb8f08494da4ec	-0.4306050029613988
135	0x40021b117d171a0c	2.2632169506716817
136	0xc026fb28412a6190	-11.490541492866015
137	0xc029dff7a338bc0f	-12.937436199832545
138	0x402fa0b2f2db65b4	15.813865269929785
139	0x401787913d415817	5.882389981377876
140	0x402ef0d709db1173	15.47039061354801
141	0x40107169921d6706	4.110754282993872
142	0xbfdb7f2d4d14d025	-0.4296372654673653
143	0x3fd35fca0ee46417	0.3027215142661261
144	0xc021f2862ed48707	-8.973679984515469
145	0xc012f97ba8dc1d5e	-4.743635786471115
146	0x400419862ceaa00f	2.512462950620836
147	0xc000e0cb9ffdcfec	-2.109763383801683
148	0xc02cd90ac5f5cf30	-14.423910318618795
149	0x400c14573ac7cd74	3.509932002279749
150	0x402d8230dd8169f1	14.7542790623165
151	0xbff4d90db7f6db02	-1.3029915987114582
152	0xc041fd8ceb873985	-35.980863038089446
153	0xbfe6f5913063f9b7	-0.7174764580848237
154	0x4021fe5c194a9876	8.996796408039
155	0xbfe4ba947e272346	-0.6477758850024677
156	0x401d502e8ac76cc1	7.328302544042516
157	0xc0131afde03acdd4	-4.776359084691155
158	0xc01d76bf07889980	-7.3659630944370065
159	0xbfe8327f0b292dbb	-0.7561640947328024
160	0xc01c46e40baaf3bd	-7.069229299840058
161	0xc006820c65fd4f4f	-2.8135002105645195
162	0xc0250816747b90f8	-10.515796318134093
163	0xc03663d50f7fb718	-22.389969795876
164	0xbfa52c4b1164d296	-0.04135355555846336
165	0x400735a2282fa4c0	2.9011881961383494
166	0x3ff823c568d44a49	1.5087331862347517
167	0xc02aa7e571052961	-13.32792237461098
168	0x3ff2d63433973d68	1.177295877005088
169	0x40052880dcbb58ef	2.644777035205258
170	0xc02778d1c0bb3491	-11.7359752872965
171	0xc0230d1a9dd27f5a	-9.525593692727558
172	0x40258c340402a89d	10.773834348034422
173	0xc019213d5b01a479	-6.282460615134476
174	0xc0234d02e3ca5109	-9.65041267246899
175	0xc030882f3a3d83fb	-16.53197063447804
176	0x4004a257d1e26645	2.579269065591492
177	0x40256b597e138b74	10.70966714848121
178	0x402c5ee6062dd59d	14.185348694891951
179	0xbfea1e537cbc282e	-0.8162019191961514
180	0xc00be5728dfcf50e	-3.4870349018880296
181	0xc029b76cc75740b0	-12.85825179042908
182	0xbffe8df3549ec645	-1.9096558862187447
183	0xbff37c8f70fbc46d	-1.2179102338234558
184	0xc039a291dc760a87	-25.635038164919504
185	0x40090f480914d32f	3.1324616155128733
186	0x4022d04a6769cb22	9.406817657150501
187	0xc0248f0288a57c9b	-10.2793162061701
188	0xc033d1114bbd1486	-19.81667016378608
189	0xc027f412f918df11	-11.976707252775244
190	0x402847ccfebe44a2	12.140235863424383
191	0xc0280e7ee4121f76	-12.028311850750224
192	0xc002d5cfd67a870c	-2.3544003254072603
193	0x40347a53218cf14e	20.47783097926122
194	0xbffbed58c8e081d2	-1.7454459997899119
195	0xc016f1a46a992ad4	-5.735978761290159
196	0x3fd4180f2447da01	0.3139684538176937
197	0xbff97d4cbeb912e9	-1.5930907678713828
198	0x400967e2ba4b2748	3.1757254175362597
199	0xc01a7bbb7de055a1	-6.620832411591807
200	0xc020c96dfa0317f5	-8.393417179944644
201	0xc029ecb751f37d1f	-12.962336121533154
202	0x400260f953c8ef9f	2.2973505540557677
203	0x402a4958172a94d7	13.143250202129293
204	0x3ff3a1567acc03b5	1.2268891140704288
205	0x4023cd2f32f7d269	9.900750725509356
206	0xc0154cf8c2ce7902	-5.325167697765439
207	0xc039c97a02b0fd89	-25.787017982683697
208	0xc024b4df578062ba	-10.353266462728573
209	0x40296a8e16fe74e0	12.70811530929717
210	0xc022a758c3d723a6	-9.32684909821712
211	0xc00137fb6e65355d	-2.152335035766255
212	0x402613bb2d4e0138	11.0385374219628
213	0xc00040450baa5a29	-2.031381693969952
214	0x401b5d2fa0b4d53c	6.841001997983138
215	0x400e70cc8420da9d	3.8050775835539086
216	0x401a29706c4ffd0e	6.540467922575102
217	0xc02356b82897f6c8	-9.669373768377582
218	0x4023850d10abfe4e	9.759865303988729
219	0x4027392e1d3f68be	11.611679948797583
220	0xc02d8f3afedd092f	-14.779746975404661
221	0xc026b27defd88876	-11.348617072279222
222	0x4006469c426fad2d	2.784477728875251
223	0xbff06631056136ae	-1.0249490938325994
224	0x4027a6acd2f0f213	11.825537292396836
225	0x401cbd991463434d	7.185154264982725
226	0x4026cbbd1ce92079	11.39792719217097
227	0xc01ff7a46a490778	-7.9918381316255065
228	0xbff67696413a3691	-1.4039518878884432
229	0x40027bbec6b374d8	2.310422470428062
230	0x40104c3a619de3e2	4.074441457044459
231	0xc0204b6a83383a42	-8.147297001470296
232	0x3ff5abbf3d1cdeb6	1.354430426332255
233	0xc00d02f08b2a0c63	-3.626435363026347
234	0xc039b6ce93dbdbe3	-25.714089623619554
235	0xc02849328d4d3767	-12.142963805843193
236	0x3ff264334d8886d7	1.149462988724215
237	0x40132922f22f329d	4.790172371035308
238	0xc01fd1f080146b2b	-7.955018998380903
239	0xc003e7cd93c9357b	-2.4881850763110243
240	0x3fd0a61556e055bb	0.2601369236375281
241	0xc010ad0f1dfa15e7	-4.169002979649554
242	0xc0060447b1f2d5d8	-2.7520898725731335
243	0xc01bc56208446fe1	-6.94275677602488
244	0x3fe3dba66f56477c	0.6205627607871373
245	0x401884ad12975d86	6.129566469658476
246	0xc036fa4abb9bcd4c	-22.977702832734664
247	0xc03808aaece65bf4	-24.03385811447147
248	0x4038a692ae50c63a	24.650675673218053
249	0xc02bb31a420ecf04	-13.849809707935044
250	0xc02f4147fec6eef4	-15.627502404960502
251	0xc0230d75d0debc22	-9.526289488972967
252	0x401bb7d97419449f	6.929540456812133
253	0x400523f71a8a3183	2.6425611565993576
254	0xc003a27d254a1b9d	-2.4543402589074064
255	0x4015ca5f24b7533e	5.447628568352966
