TTT_project/netFiles/w2File.npy (npy, 5912 bytes, 1 tensors)

array f8 [81, 9]
00000000: 9dbc 56e5 78b7 ca3f 24cd 4e15 6ab7 24c0
00000010: 5b5a edca ad0f 0bc0 76bf 5c15 0355 15c0
00000020: 4b4a 3ff1 6c87 df3f 47e8 1a6a 1101 13c0
00000030: ddca b843 2f07 13c0 b430 56cb e453 0ac0
00000040: d584 e6ef dec6 02c0 f857 f6db cac6 2840
00000050: 4cdf 806c 9309 3140 b372 c220 c08d f0bf
00000060: 8aeb 2007 94d0 01c0 415a 997d a656 15c0
00000070: a7a9 03df 48c3 14c0 5e51 d8aa cee7 fcbf
00000080: b3fc d998 9226 b43f 8537 edff ec57 17c0
00000090: 8b78 bb09 4d4a e13f d7dd 867e 4a73 f9bf
000000a0: 0b07 2c2d 15d0 03c0 afb9 5c17 c774 f73f
000000b0: 4da2 9835 677f 0f40 8aa4 8799 b31d 1cc0
000000c0: 97c5 5302 461c 0cc0 a710 4113 c6c6 1cc0
000000d0: 4ac1 bbeb 99a1 11c0 570e df2d 14b0 19c0
000000e0: ad1e 5140 47d3 24c0 07e8 d7b8 96f8 18c0
000000f0: cfe5 a6c6 fc05 0ac0 8ce7 b5c4 df12 dbbf
00000100: 9dc8 33fd 9924 2a40 f402 309c 3a52 1a40
00000110: a072 4561 6792 17c0 59b2 8496 9503 1dc0
00000120: 713a de7a cec3 ebbf e3b3 4e5e 9077 1640
00000130: 6fa0 adc4 a650 1ac0 7e28 50bc 6bf1 23c0
00000140: db06 a4f4 64b9 f23f 847f 6681 99b1 ebbf
00000150: 1cbe 1c26 55a6 f7bf 1e25 3647 0db0 1740
00000160: 4d7f 8bd9 0bc3 f33f 7f4f bbb3 eee7 0b40
00000170: a2b5 ef8b 01aa 1040 e4bb 9670 de1f ec3f
00000180: 2710 8f95 6b75 33c0 77c6 d093 e218 f9bf
00000190: e508 f4ad 3b1a 0640 c621 50bb b331 d0bf
000001a0: a5a3 8442 3246 16c0 2ce6 b694 a65b 0f40
000001b0: 15d0 299d 646e 2040 2f29 a31c 4f53 2ac0
000001c0: ce49 a0f7 156b fd3f c9e3 b0ae 2577 b5bf
000001d0: f613 1eb2 5b32 34bf 5faa 2c13 8b33 16c0
000001e0: 8a2f 6ea0 18f2 0340 38b1 6079 503f 0fc0
000001f0: e28c 9cfe 8e58 af3f ae32 991e 48a1 25c0
00000200: c020 8bd4 5e0b 10c0 3432 7235 0c28 18c0
00000210: 246a f170 3651 1e40 8963 a1f8 bdd9 d53f
00000220: 8bd7 4de4 0dda 0cc0 89b8 d421 962e 24c0
00000230: fb7a 4e1e 92e3 02c0 a529 d6f4 0187 ddbf
00000240: 70f4 1149 fbf6 f2bf 3154 5b54 3640 18c0
00000250: 51fc dc47 1176 e53f 2842 b4bf 7446 0740
00000260: 7164 fbdf a801 0fc0 ed36 2319 caf1 1f40
00000270: 9b7e 1ebe aac6 10c0 e99c 163c a97c f9bf
00000280: f968 0698 85f2 0d40 d77c 8974 5497 2840
00000290: 4a36 4e48 5e38 26c0 754b d64a 85c9 2cc0
000002a0: d443 c765 61eb ed3f 681a 8afb 3ea4 1dc0
000002b0: e2d3 39b8 3fcd 24c0 29be 7f26 5064 1740
000002c0: f625 c6b8 ecbc 21c0 2ab3 fd4e 1a26 1ec0
000002d0: 54da 08c1 7efc 1440 ae82 748b f053 0040
000002e0: ad8c 61a6 b35b 1a40 126d 8827 1783 07c0
000002f0: 7fce c6a8 4a9f 1dc0 78a4 2a2f 943f f7bf
00000300: d794 2fbf 98e1 1040 1402 fd31 7401 0940
00000310: 96e3 3877 0081 1540 bdfd 2cea 3baf 1440
00000320: baea 44f5 4a94 02c0 150e 2f26 67e5 0640
00000330: 025d 8506 ef29 22c0 3105 8361 7900 12c0
00000340: 2ec5 75ea 4f9d 00c0 4a44 9911 4826 40c0
00000350: 62ec f103 4c74 0340 5ba5 443e 25f3 1340
00000360: b274 f212 a7d8 0140 811f 8bde 3edf e5bf
00000370: b2ff 7a0e 9b5a 26c0 66f5 1b7d 7967 03c0
00000380: b7f3 9854 fe0c 00c0 b52f fdcb dc0c e4bf
00000390: db76 94fe 6472 02c0 b689 53f9 8279 17c0
000003a0: 5748 21fb cb87 18c0 0537 7a7a 1569 f1bf
000003b0: 0727 9c89 d463 14c0 5452 8cd6 0988 1bc0
000003c0: 11ef e020 e726 ec3f 325c 7052 a5ec e23f
000003d0: bd0c bc4d c235 1140 8ede 3a21 f275 19c0
000003e0: 40a6 a8f2 de20 fdbf e4c2 9a5d 6449 1bc0
000003f0: e663 56bc 060c e4bf f139 668b 8fe5 0940
00000400: 6c06 6fc5 00ea 1340 c8a8 610e 1da9 03c0
00000410: c532 a736 f132 0440 d0a0 0fef ab89 0fc0
00000420: 927c 53c7 2c93 10c0 afb0 bafb 7d0d 15c0
00000430: 6d45 1bcb 66dd 01c0 e2c3 5bda 13ca fe3f
00000440: f4ea 910c d1a0 01c0 a3f2 4c4a c905 fc3f
00000450: 6196 6d3c a831 18c0 527e a917 2591 22c0
00000460: 4bcf 2353 6ec4 f33f 76a9 2fa9 f4ff 14c0
00000470: 2260 929d cff4 15c0 f6a0 a960 b8c1 0340
00000480: 9587 68a4 916c 1240 904b 590b f266 1c40
00000490: f6cc 83b3 cd6b 2740 76f4 a46e 7642 2c40
000004a0: cc60 7bd5 3a3b 2b40 3385 8649 2e0c 2540
000004b0: 6be5 2b21 2b4e 2dc0 5ed6 1d5b d9d4 2ec0
000004c0: f303 b0e8 8161 27c0 66b2 a924 3d8a 1e40
000004d0: 21b8 938b 6b62 3040 9107 e120 21dd 2ec0
000004e0: 0772 a041 0977 e83f affe 6b54 8a01 2840
000004f0: c95d f008 2b59 22c0 b167 5330 1c7d 2040
00000500: bd9e 2de7 dbc6 3440 60a2 4334 a88a 2ec0
00000510: bcdf 791f f6c5 fa3f 18f9 92da 4e93 edbf
00000520: a4cf c78b ee55 0f40 7d74 9cec bdc8 11c0
00000530: 3116 393c 08d6 e3bf 9d81 e486 a664 07c0
00000540: 7794 626d 3ffc 0b40 8874 f5bc a31b cbbf
00000550: dd67 3f5f 1a03 40c0 248e bb18 fc31 38c0
00000560: d303 fb0b aa16 2fc0 284e 1a36 4cf8 2bc0
00000570: 36ce 536f 94ff 2cc0 6efc 0c78 abb1 16c0
00000580: cd3b 28c0 ed3b 34c0 3c3c ace5 1c0e 1e40
00000590: 0e0a 3c74 3b2f 1240 453b fae4 5cb0 1740
000005a0: ac54 ce01 f532 1c40 f06b aade 8208 0a40
000005b0: 9c9b 9c90 500d 0a40 8c84 82c6 55ee 0f40
000005c0: aea5 6f26 4ee4 1140 8ee3 ea04 c3b1 ffbf
000005d0: f35d 12a1 3a0a b83f 0009 45bd 03e4 e0bf
000005e0: 4884 2ad2 c082 05c0 f6aa 1caf 405b f93f
000005f0: f982 dec1 fd2e 1e40 e317 d558 064a 20c0
00000600: c94b f065 0d9d 1340 dd05 9bff e0d6 febf
00000610: 8fa0 4458 dd5b 1ac0 45b2 e001 030e 2040
00000620: 2863 fccf 3cd3 21c0 d1f8 3bcf c608 eebf
00000630: 4db4 1303 8e4b 25c0 515c 581c b3ad 2840
00000640: c893 deda e333 2540 c9ec 57bd 8dc0 1a40
00000650: a7be d8c3 fb98 16c0 7125 16aa 8de7 2540
00000660: 2ffe a697 adb7 25c0 e4b9 95ed 9788 1f40
00000670: e071 aaf2 1d50 3240 fa98 edd2 23b0 17c0
00000680: 0f6b 360b 93d0 0f40 fff7 69a5 92a2 0140
00000690: ae94 2405 3b9a 3540 9ce8 9bc7 faee 1140
000006a0: f586 1a25 4d12 a03f 06bf 78ed 70d5 10c0
000006b0: c80b 6b50 25b7 f63f cfae c8eb f02f fb3f
000006c0: 7aba b219 9321 07c0 af7a 5cf0 5c81 f7bf
000006d0: c424 8837 93f9 1140 1654 28b8 5fee 0340
000006e0: 0686 7ac1 33fb 0240 31e6 ddae 58d3 0d40
000006f0: d157 29bb f120 cf3f c4a6 f1e7 20b6 0fc0
00000700: d8ae 03a4 b292 fabf c335 3bdb 9f6d d1bf
00000710: 17b6 cf50 8796 e43f 48d3 d2f7 335f 0040
00000720: 63de 7ae9 e593 12c0 3731 44b4 4f6b 42c0
00000730: cb2c 437b 90d6 d9bf 8e76 1d31 fb74 ecbf
00000740: c165 8056 8343 14c0 8084 e531 8ecd fc3f
00000750: 702b 6427 2435 1c40 66d4 9504 7872 1240
00000760: dd76 3055 1961 2c40 2082 e684 1da2 2c40
00000770: 9b27 f3df 89b7 01c0 114a 7e86 7ab8 2440
00000780: 3810 3ffb 8118 20c0 95df 4081 b4e4 1740
00000790: c535 91a7 02a1 05c0 54ad d4de 3702 0f40
000007a0: 2ee5 e93e a25a b83f ea2f ce77 aeb7 07c0
000007b0: b24d a8ff 142c 0cc0 e36a b10d d4a1 2940
000007c0: cf7a b309 2172 20c0 576b a963 6ef0 13c0
000007d0: 39b0 ad68 796e 15c0 1424 134a c823 3340
000007e0: 0260 e554 2d8b 1a40 70cb 3e71 2728 2540
000007f0: e03a 8e9f 5ca8 1a40 f818 d739 3c71 30c0
0.20872412870582915 -10.358231225842765 -3.382655701988637 -5.33301957491482 0.4926407199792819 -4.751042993442815 -4.75701623740562 -3.2909637342146087
-2.3471049062942293 12.388266443082088 17.037405759299233 -1.034607055632631 -2.2268448407098207 -5.3346194863175365 -5.190707668875269 -1.8065935777313693
0.07871357185102816 -5.835865019658631 0.5403199377140181 -1.5906472151235584 -2.476602890878785 1.4660101807199728 3.937208574982185 -7.029005431083656
-3.5138054067435394 -7.194114971967941 -4.407813723883303 -6.421951977481135 -10.412652978803942 -6.242762458970907 -3.252923538177789 -0.4230269833566289
13.071487343379255 6.580301704817192 -5.8929724882733865 -7.25350032029072 -0.8676521682517216 5.616761659196501 -6.5787611704800915 -9.971525082383092
1.1702622944143772 -0.8654296424247012 -1.478108548046186 5.921925652198551 1.2351187227104277 3.48824825682999 4.166021524911601 0.8788902472496116
-19.45867285483123 -1.5685754560512615 2.762809142122125 -0.2530335740307489 -5.56855110106054 3.91975132163204 8.215611373285393 -13.162712950627421
1.83864399651485 -0.08384929194370651 -0.0003081773630742574 -5.5503352161418595 2.493211034166909 -3.9059152109749924 0.06122252328921164 -10.815003353310512
-4.011103936187453 -6.039109072775819 7.579309239134577 0.34141492157282777 -3.606471809030102 -10.090989167420291 -2.3611185424518886 -0.4613652125341566
-1.185298238210887 -6.062707250665924 0.670662536962377 2.909402368248511 -3.875810384616266 7.986122505926443 -4.1940107065308 -1.592934832305952
3.743418872542972 12.295566217215692 -11.110094317958232 -14.393595064791706 0.9349829662188491 -7.41039650946059 -10.400876767214815 5.847961999460986
-8.86899354380419 -7.537209734186755 5.2465772782948825 2.040986146443479 6.589552497581434 -2.9390090073117188 -7.4055582400648055 -1.4530221788830016
4.220309245375765 3.125709906133361 5.375978339049558 5.171126994129222 -2.32240859619682 2.8620131476507233 -9.081901744632436 -4.50046303140816
-2.0768125836554168 -32.299074363553316 2.4317856128887323 4.987446759166541 2.230787418388524 -0.6835016581107852 -11.176964237703803 -2.425524690070847
-2.006344471852994 -0.6265701278839432 -2.305856694131632 -5.868663688396216 -6.1326140631736825 -1.088155249049522 -5.097490453868665 -6.882850029291678
0.8797488824997989 0.5913874254355334 4.30249902210488 -6.365181464403248 -1.8205251196726664 -6.821671927042846 -0.6264680555788089 3.237090195710373
4.978518566991266 -2.4575749515107397 2.5248741407179716 -3.9422224690098133 -4.143725504370325 -5.263175900716461 -2.2331062190721043 1.9243353395106557
-2.2035237295179915 1.7514126684538176 -6.048493332089124 -9.283486117782704 1.2354567763949997 -5.249956744703345 -5.489073240336468 2.4695899535910213
4.606024330978376 7.100532700848717 11.710553750838226 14.129809816013431 13.615683242140584 10.523790643378197 -14.652672802551669 -15.415720794098146
-11.690444251524218 7.634998867852664 16.38445350986888 -15.431893374890736 0.7645307809612526 12.00300849741265 -9.174156455365749 8.244355688267975
20.77679295409938 -15.27081454587568 1.6733304242643348 -0.9242319363618519 3.9169588966705806 -4.446037003564126 -0.6198769737463349 -2.9241457499012555
3.498167852946206 -0.2117809937143742 -32.024242311439345 -24.19525293902383 -15.544266104117844 -13.984956446372124 -14.499179343204656 -5.673505664627653
-20.234096536467224 7.513782108914764 4.546125236668116 5.922229364178581 7.04976275274127 3.2541558643110804 3.2565013215821192 3.991374541147314
4.472954369129566 -1.9808988754359436 0.09390608246246028 -0.5278338143037047 -2.688844339296825 1.5847784843742239 7.545889882284194 -8.144579673778884
4.903371422568804 -1.9274606690017813 -6.589711550892516 8.027366694144016 -8.912573337134361 -0.9385713622612234 -10.647567840724287 12.33925713137265
10.601347770376279 6.688040693751824 -5.649397907356309 10.952252688601876 -10.85874627984512 7.88339205957752 18.312956968891626 -5.922011657478146
3.976842963789188 2.204381267830285 21.602463075095038 4.4833785237225605 0.03138962819981642 -4.208438597197306 1.4197133199056555 1.6992043695744774
-2.89139385296522 -1.469082774077531 4.493725650486514 2.4913935077006597 2.3726573100582327 3.7281964932888276 0.243192879092645 -3.96392995077335
-1.6608148962795237 -0.27231594476037574 0.6433750704142679 2.046485839959505 -4.644431732296286 -36.83836987809848 -0.40372097050994843 -0.8892799338606936
-5.065930701815376 1.8001844357570747 7.051895728577492 4.611785956997755 14.189646398702672 14.31663146318266 -2.214618444068902 10.360309794346025
-8.047866679618991 5.9733448215337335 -2.7036183444203936 3.8760831268934144 0.095132961616305 -2.9646882400320367 -3.521524426768985 12.816070964724934
-8.222908309134622 -4.984796101775678 -5.3578850131998985 19.13977492301281 6.635915113925877 10.578425921359411 6.664415829711942 -16.4423252248898
